Running task: task2_attention
Device: cuda
Preparing the training dataset...
Preparing the validation dataset...
Number of training samples: 63325
Number of validation samples: 450
----------------------------------------------------------------
        Layer (type)               Output Shape         Param #
================================================================
            Conv2d-1         [-1, 32, 256, 256]             896
       BatchNorm2d-2         [-1, 32, 256, 256]              64
              ReLU-3         [-1, 32, 256, 256]               0
            Conv2d-4         [-1, 32, 256, 256]             128
       BatchNorm2d-5         [-1, 32, 256, 256]              64
              ReLU-6         [-1, 32, 256, 256]               0
             Block-7         [-1, 32, 256, 256]               0
         MaxPool2d-8         [-1, 32, 128, 128]               0
            Conv2d-9         [-1, 64, 128, 128]          18,496
      BatchNorm2d-10         [-1, 64, 128, 128]             128
             ReLU-11         [-1, 64, 128, 128]               0
           Conv2d-12         [-1, 64, 128, 128]           2,112
      BatchNorm2d-13         [-1, 64, 128, 128]             128
             ReLU-14         [-1, 64, 128, 128]               0
            Block-15         [-1, 64, 128, 128]               0
        MaxPool2d-16           [-1, 64, 64, 64]               0
           Conv2d-17          [-1, 128, 64, 64]          73,856
      BatchNorm2d-18          [-1, 128, 64, 64]             256
             ReLU-19          [-1, 128, 64, 64]               0
           Conv2d-20          [-1, 128, 64, 64]           8,320
      BatchNorm2d-21          [-1, 128, 64, 64]             256
             ReLU-22          [-1, 128, 64, 64]               0
            Block-23          [-1, 128, 64, 64]               0
        MaxPool2d-24          [-1, 128, 32, 32]               0
           Conv2d-25          [-1, 256, 32, 32]         295,168
      BatchNorm2d-26          [-1, 256, 32, 32]             512
             ReLU-27          [-1, 256, 32, 32]               0
           Conv2d-28          [-1, 256, 32, 32]          33,024
      BatchNorm2d-29          [-1, 256, 32, 32]             512
             ReLU-30          [-1, 256, 32, 32]               0
            Block-31          [-1, 256, 32, 32]               0
        MaxPool2d-32          [-1, 256, 16, 16]               0
           Conv2d-33            [-1, 1, 16, 16]              98
          Sigmoid-34            [-1, 1, 16, 16]               0
 SpatialAttention-35            [-1, 1, 16, 16]               0
          Dropout-36          [-1, 256, 16, 16]               0
AdaptiveAvgPool2d-37            [-1, 256, 1, 1]               0
           Linear-38                   [-1, 50]          12,850
================================================================
Total params: 446,868
Trainable params: 446,868
Non-trainable params: 0
----------------------------------------------------------------
Input size (MB): 0.75
Forward/backward pass size (MB): 218.01
Params size (MB): 1.70
Estimated Total Size (MB): 220.46
----------------------------------------------------------------
Start training...
…
