Running task: task1_CNN
Device: cuda
Preparing the training dataset...
Preparing the validation dataset...
Number of training samples: 63325
Number of validation samples: 450
----------------------------------------------------------------
        Layer (type)               Output Shape         Param #
================================================================
            Conv2d-1         [-1, 32, 254, 254]             896
       BatchNorm2d-2         [-1, 32, 254, 254]              64
         MaxPool2d-3         [-1, 32, 127, 127]               0
            Conv2d-4         [-1, 64, 125, 125]          18,496
       BatchNorm2d-5         [-1, 64, 125, 125]             128
         MaxPool2d-6           [-1, 64, 62, 62]               0
            Conv2d-7          [-1, 128, 60, 60]          73,856
       BatchNorm2d-8          [-1, 128, 60, 60]             256
           Dropout-9          [-1, 128, 60, 60]               0
        MaxPool2d-10          [-1, 128, 30, 30]               0
           Linear-11                  [-1, 512]      58,982,912
           Linear-12                   [-1, 50]          25,650
================================================================
Total params: 59,102,258
Trainable params: 59,102,258
Non-trainable params: 0
----------------------------------------------------------------
Input size (MB): 0.75
Forward/backward pass size (MB): 64.01
Params size (MB): 225.46
Estimated Total Size (MB): 290.21
----------------------------------------------------------------
Start training...
…
